ExampleCodes/ODE_MNIST/experiment1/model.pth (torch, 839638 bytes, 24 tensors)

0.weight f4 [64, 1, 3, 3]
000000 6f 2d ba be b1 0f 9f bd 76 6a 5f be fc 7a 21 3d
       -0.36362788 -0.07766665 -0.21817955 0.039423928
000010 ee 96 44 be 3a 8e 60 be 15 6e 90 ba 8f 38 a7 bd
       -0.191982 -0.21929255 -0.0011019135 -0.081650846
000020 59 f1 1b be 58 96 0b 3e f3 d9 90 be a3 5f ea 3d
       -0.15228786 0.1363157 -0.28291282 0.114440225
000030 9a 22 94 be af f5 3a be 99 42 6c be 21 8c 33 3e
       -0.2893265 -0.18257783 -0.2307228 0.17533924
000040 3c 84 91 bd 5f 06 87 be 2f 49 9d bd 3c df 96 bd
       -0.071053 -0.26372048 -0.07679974 -0.07366797
000050 95 08 93 bd 12 84 14 3d 40 b4 89 3e d7 8a 22 bd
       -0.07179371 0.036258765 0.26895332 -0.03968319
000060 4d f7 94 3e 5f 39 87 3e 49 c9 6b be a0 0e b7 3e
       0.29094926 0.26410958 -0.23026003 0.35753345
000070 24 17 be be 24 0d 15 bf 26 bb 46 3f 61 e5 d5 be
       -0.3712703 -0.58223176 0.77629316 -0.41776565
000080 93 9c 25 bf 84 41 3f 3f a1 87 b8 3e 09 99 ac bd
       -0.6469204 0.74709344 0.36040977 -0.08427627
000090 c3 5f 59 bd 6d 12 44 3e 86 7a f0 3e a7 38 d5 be
       -0.05306984 0.19147654 0.46968478 -0.41644785
0000a0 04 81 48 3e 43 06 c0 3e a7 27 4f be 13 ad 95 be
       0.19580466 0.37504777 -0.2022997 -0.29233608
0000b0 23 57 bc bd 92 a9 92 3e e9 51 37 bc f7 26 b2 be
       -0.091963075 0.28644997 -0.0111889625 -0.34795353
0000c0 5b 80 05 3f bc cc 84 be 8a 82 a1 be cb 20 82 3e
       0.5214898 -0.2593745 -0.31544906 0.25415644
0000d0 c5 45 a4 be e4 23 64 bd f7 06 44 3e e2 01 96 3e
       -0.3208448 -0.05569829 0.19143282 0.2929831
0000e0 de 58 86 bf 24 d5 99 3d 66 65 cf 3e 61 50 fd bc
       -1.049587 0.075113565 0.40507048 -0.030922117
0000f0 3c 4f ba 3e ad dc 07 3f b8 40 0e 3e 09 6f 2b 3e
       0.36388576 0.530711 0.13891876 0.16741575
000100 16 f6 9e 3e 7c d5 c7 3a 00 90 18 bd 20 3f f6 3e
       0.31047124 0.0015246118 -0.037246704 0.48095036
000110 cd f9 0a bd 69 b2 0c bf 66 81 4e bd 00 26 ac 3e
       -0.033929635 -0.5495973 -0.050416373 0.33622742
000120 16 18 99 be 9d 36 84 be 18 4e 92 3e 1e 78 a2 3e
       -0.2990119 -0.25822917 0.28575206 0.31732267
000130 d0 d7 fc 3e 11 46 9b 3d d1 75 b1 3e de d9 63 be
       0.49383402 0.075817235 0.346602 -0.22251078
000140 4c 96 b0 be d6 e4 cd be 59 59 83 3e cb 21 21 3f
       -0.34489667 -0.4021365 0.25654104 0.6294219
000150 2e 47 b2 be 4b 85 b0 3e 71 e9 0e 3f a6 5e 34 be
       -0.3481993 0.34476694 0.55824953 -0.1761423
000160 ba e9 c7 be 81 52 97 3c b7 07 a7 3d 2a d4 03 3f
       -0.39045507 0.018471958 0.08155768 0.5149561
000170 42 4f 08 3f 76 da 0c bf 87 4f ea be 87 75 be be
       0.5324594 -0.55020845 -0.457638 -0.3719904
000180 b4 14 83 bd e4 a7 8b be f8 79 9b be 28 c4 7a bd
       -0.06400433 -0.27276528 -0.30366492 -0.061222225
000190 4f 87 3c 3e 8b b9 fa be 46 19 a7 bc 86 c3 8f 3e
       0.18410991 -0.48969683 -0.020397794 0.2807886
0001a0 ed 1a 5e 3e a7 09 08 3e 9d 28 1c 3e d8 3e 94 be
       0.21689959 0.13284932 0.15249868 -0.28954196
0001b0 51 d6 88 3e 9c 90 f4 3e 79 ee 88 3e 7b eb 23 3f
       0.2672601 0.47766578 0.2674444 0.6403119
0001c0 3e 71 b8 3e b5 fe 3a bf 36 d6 48 3e 7b c2 52 bf
       0.36023897 -0.730449 0.19612965 -0.82328004
0001d0 71 18 f7 be e0 23 40 bd 02 f3 14 be d3 68 84 3c
       -0.48260835 -0.046909213 -0.14545825 0.016163265
0001e0 db f1 aa be c8 e1 b4 3e e1 a8 58 3e f2 f9 ea bd
       -0.33387646 0.35328507 0.21158172 -0.114734545
0001f0 1b ff b4 3e 91 d2 82 be f4 29 55 3d 4b 21 1a bf
       0.3535088 -0.25551274 0.052041963 -0.6020705
000200 3f 6d 3a bf cf c8 e0 3e 70 96 e1 3e a2 a0 bc 3e
       -0.72822946 0.43903205 0.44060087 0.36841303
000210 66 6d 93 be dd 8f 55 3e 59 54 bf 3e 4f 40 5a 3d
       -0.28794402 0.2085566 0.3736904 0.053283986
000220 b0 f6 bc bd 23 28 cc 3e 9c 8e ba 3e f9 5c a9 3e
       -0.092267394 0.39874372 0.36436927 0.33078745
000230 f3 25 82 be 52 bf 06 3e 0f d9 eb bd 66 e4 23 bf
       -0.25419578 0.1315892 -0.1151601 -0.64020383
000240 1a 88 9a be 11 d9 79 be 77 54 26 3d fa a4 ca 3e
       -0.30181962 -0.2439921 0.040607896 0.39578992
000250 de cd 82 be a5 91 0d bf b5 3d be 3e 90 7c a7 3e
       -0.2554769 -0.5530036 0.37156454 0.3271222
000260 60 da 9b 3e ce 98 c1 be fc 9d d4 3c c2 20 b1 be
       0.30440044 -0.37811893 0.02595424 -0.34595305
000270 81 46 27 bd d5 5d 9b be 81 56 a4 be b7 b3 b3 be
       -0.040838722 -0.30345026 -0.32097247 -0.3509805
000280 41 2c 81 be b5 e3 0b 3e 63 17 0a 3e 1a b1 8e be
       -0.25229076 0.13661082 0.13485484 -0.27869493
000290 65 08 be be be e5 33 be 50 66 41 be c7 01 40 be
       -0.3711578 -0.17568108 -0.18886685 -0.18750678
0002a0 64 76 5d 3c b4 49 e1 bd 1b 45 2d be 27 be 6c 3e
       0.013516996 -0.11000386 -0.16920893 0.23119412
0002b0 9c 0d 86 be be a8 56 bd 06 23 9e 3d 7e 12 48 be
       -0.26182258 -0.05240702 0.07721524 -0.19538304
0002c0 58 4e 8e be 18 a7 b2 be 0d 35 6f be 1e 8e 8f be
       -0.27794147 -0.34893107 -0.23360081 -0.28038114
0002d0 e7 1e 40 3e cc 1b 0b 3e ed 21 2f bc c1 77 c6 3e
       0.18761788 0.13584822 -0.010689241 0.3876324
0002e0 87 6d 29 3e 0a 67 b9 bc e0 59 0b 3e b0 2b da be
       0.16545688 -0.02263214 0.13608503 -0.42611456
0002f0 63 dd 93 3e eb bf 7c be 85 15 39 3e c0 dd ef bd
       0.28879842 -0.24682586 0.18074615 -0.11712217
000300 85 9a 96 be c9 d4 a0 bc 9e 81 90 be 79 2b 93 be
       -0.29414764 -0.019632714 -0.2822389 -0.28744105
000310 88 99 d1 bd 9c 9c a3 bc 90 2f 5b 3c 4c bb b2 be
       -0.10234362 -0.019972138 0.013378039 -0.3490852
000320 be 2d 6e be 31 72 15 3c a0 e5 0b 3d 4f 22 a3 be
       -0.23259637 0.009121464 0.034154534 -0.31862113
000330 8a 9e 08 3e 31 ee 4b bd 69 d0 81 be ea 04 a6 be
       0.13341728 -0.049787704 -0.25354317 -0.32425624
000340 45 ae 43 be b9 ea a3 be 1c 7f c4 bd 4d 03 ad be
       -0.19109447 -0.32015017 -0.09594557 -0.3379158
000350 42 a1 a0 be ee da b1 3e 02 97 53 3e 53 cc 7d be
       -0.3137303 0.34737343 0.20663074 -0.24784975
000360 85 a8 8d be 13 13 54 3e d0 07 c8 3e 7c 56 75 3e
       -0.27667633 0.20710401 0.3906846 0.23958772
000370 59 4f f4 3e 37 f8 38 3e 16 2d 8a be 1e 72 08 bf
       0.47716787 0.18063436 -0.26987523 -0.5329913
000380 48 fc 7b ba 3c 69 db 3e 22 e4 6f be a5 3b 0c bf
       -0.0009612483 0.42853725 -0.2342687 -0.5477851
000390 f2 66 2f 3e 11 15 08 3e 8f c4 01 bf 32 4a 09 3f
       0.17129114 0.13289286 -0.5069055 0.5362884
0003a0 af 7a 4b be f2 83 e5 be c4 d5 ee 3d 00 8c 25 be
       -0.19871019 -0.4482723 0.11661866 -0.16166687
0003b0 77 fe 1d 3f 6f b9 d2 be f9 65 bc be a6 39 c4 3e
       0.6171641 -0.411571 -0.3679655 0.38325232
0003c0 dc f8 84 3e e8 d7 9e be 93 8b f2 be 5d 04 2d 3e
       0.25971115 -0.31024098 -0.47372112 0.16896196
0003d0 a1 a0 0c bf 35 c0 37 3e 6f fb 39 be 80 be f1 be
       -0.549326 0.17944415 -0.1816232 -0.47215652
0003e0 1d d3 0e 3f ec 63 16 bd a0 6e 8b 3e 5f ec e9 3e
       0.55790883 -0.036716387 0.27232838 0.4568815
0003f0 46 25 ec be 43 81 24 bd 03 76 87 be 58 8a b3 3d
       -0.46122187 -0.040162336 -0.26457223 0.08766621

0.bias f4 [64]
000000 d5 4f eb bd 0e 90 60 be db c8 d5 3d 31 c4 08 3e
       -0.11489836 -0.21929953 0.10438701 0.13356091
000010 72 98 9a 3d bf 23 1d be 9b cb a2 3d 92 af 1a be
       0.07548608 -0.15345667 0.07948991 -0.15106037
000020 19 06 79 be 3d 96 3f be 04 26 4e 3e da 61 3b 3e
       -0.24318732 -0.18709655 0.2013169 0.18299046
000030 16 ef 82 3d 2a 50 8e bd 84 43 a3 be c1 63 3c 3d
       0.06393258 -0.06948884 -0.31887448 0.04599357
000040 64 5c ab 3d de 22 91 3e 74 1b 32 be f8 c6 91 be
       0.083672315 0.28346914 -0.17393285 -0.28472114
000050 f2 da 04 3e bb a7 b3 bd f3 09 11 be f7 89 23 bc
       0.12974146 -0.087722264 -0.14163952 -0.009981624
000060 2f e1 99 3e cd 8b 7e 3e 58 5c c9 3d ca 9f e6 3d
       0.30054614 0.24858017 0.09832066 0.11260946
000070 76 45 0c be 3f 89 88 be 86 99 8a be c0 b8 5b bd
       -0.13698372 -0.2666721 -0.27070254 -0.05364299
000080 9e 13 36 be ce ad f2 3d 65 bb e3 bd 91 f3 39 3e
       -0.17780921 0.11849557 -0.11119727 0.1815932
000090 ad 6a f7 be 85 a0 3b 3d b3 b1 b5 bd 7f 9a d5 3d
       -0.48323575 0.04580738 -0.08871784 0.104298584
0000a0 c0 e9 14 be ff 6e ce bd f8 73 1b bd 2b a4 6d 3d
       -0.14542294 -0.100797646 -0.037952393 0.05801789
0000b0 da f7 c4 bd 62 01 4e be 8b 77 ca bc 02 30 3d 3d
       -0.096175864 -0.20117715 -0.024715206 0.046188362
0000c0 f5 a3 a5 be 65 5a e7 bc 96 2c 2b 3e ce f9 22 3d
       -0.32351652 -0.028241346 0.16716227 0.039789014
0000d0 50 f1 21 3e c3 43 db be 67 ae 1f 3e a3 5a ba 3d
       0.1581471 -0.42825136 0.15593873 0.09099319
0000e0 1c 10 4e 3c 7a 4a 8c 3d a9 db 16 3e e2 0a 4e bb
       0.012577083 0.06850143 0.14732231 -0.0031439592
0000f0 91 34 85 be 0b c6 14 be 87 6e 80 be 94 31 ab 3d
       -0.26016667 -0.14528672 -0.25084326 0.08359066

1.weight f4 [64]
000000 be 4c 86 3f e1 98 90 3f 48 40 89 3f 57 41 95 3f
       1.049217 1.1296655 1.0722742 1.1660565
000010 1a 1b 57 3f 25 1f 85 3f eb 56 77 3f ae 73 87 3f
       0.8402573 1.040013 0.96617 1.0582178
000020 b0 aa 76 3f 0c 11 47 3f 19 27 a5 3f fa c8 58 3f
       0.963542 0.77760386 1.2902557 0.84681666
000030 bc 2a 90 3f e0 35 88 3f 00 bf 89 3f 87 3b 5f 3f
       1.1263041 1.0641441 1.0761414 0.87200207
000040 22 10 81 3f be f9 7c 3f 89 9d 88 3f c1 1c 90 3f
       1.0083048 0.98818576 1.0673076 1.1258775
000050 79 d9 2e 3f a5 00 80 3f 11 d4 8c 3f 81 3d 91 3f
       0.68300587 1.0000197 1.1002218 1.1346895
000060 89 64 81 3f 81 3e 94 3f 09 54 95 3f ea 56 58 3f
       1.0108806 1.1581575 1.166627 0.8450762
000070 ad 4f 8c 3f 06 9f 8d 3f 1a 6c 9b 3f 12 2c 29 3f
       1.0961815 1.1064155 1.2142365 0.6608287
000080 51 58 96 3f d6 4b 90 3f 00 2a 80 3f 9a 6f 3c 3f
       1.1745702 1.1273143 1.0012817 0.7360779
000090 7e 71 86 3f 0d f7 8e 3f 4d 02 87 3f 7d a9 89 3f
       1.0503385 1.1169144 1.0547577 1.0754849
0000a0 dc cc 6f 3f db 54 85 3f 0d a6 83 3f 82 cd 2a 3f
       0.93671966 1.0416521 1.028505 0.6671983
0000b0 d7 8a 5b 3f bc de 52 3f 14 d3 84 3f 77 69 64 3f
       0.8575873 0.82371116 1.0376916 0.89223427
0000c0 22 48 90 3f df 7a 64 3f 7e ba 90 3f da 4f 6b 3f
       1.1272013 0.89249986 1.1306913 0.9191872
0000d0 21 95 45 3f 07 dd 80 3f 88 06 5a 3f d7 3e 81 3f
       0.7718068 1.0067452 0.85166216 1.0097302
0000e0 36 e1 7a 3f 83 fe 9a 3f 19 7b 65 3f 37 a3 a1 3f
       0.97999895 1.2108921 0.8964096 1.2627934
0000f0 15 8b 84 3f 95 4c 81 3f f6 86 9a 3f 02 c7 5a 3f
       1.0354944 1.0101496 1.2072437 0.8545991

1.bias f4 [64]
000000 ac ee 55 be e5 38 c3 bd 02 87 ff 3d 64 a0 19 be
       -0.20891827 -0.09532336 0.124769226 -0.1500259
000010 f9 c7 45 be 58 17 47 3c 5c 7d 83 be 92 4c f4 bd
       -0.19314565 0.012151562 -0.2568158 -0.11928667
000020 f7 20 7b bd 6c 6a 80 bd 19 46 47 3c 65 e4 3a be
       -0.061310735 -0.06270298 0.012162709 -0.18251188
000030 6a 82 59 be 05 78 e1 3b 5b 1a 2d 3e 25 ec 8a be
       -0.21241155 0.0068807625 0.16904585 -0.2713329
000040 03 91 28 3e 54 b7 45 bd 51 be 43 be cd 5c 26 be
       0.16461568 -0.04827054 -0.19115569 -0.16246338
000050 74 83 b7 be ee 5e db b8 f5 59 11 bd 68 3a 22 be
       -0.35842478 -0.00010460416 -0.03548618 -0.15842593
000060 17 50 2c be bb 2b 65 bd 19 c4 97 3d a2 55 e5 bd
       -0.16827427 -0.055949908 0.074104495 -0.11197974
000070 74 8f 13 be e4 2e 97 bc 53 ab 70 bd 66 0d 5c be
       -0.14410192 -0.018454976 -0.058757138 -0.21489486
000080 6a f2 6b be 8a 99 81 be bc 04 3d bb a0 d6 a2 be
       -0.23041692 -0.25312454 -0.0028841933 -0.3180437
000090 4f 03 55 3d 36 d5 67 be 75 94 40 bc 8c 8f ac bc
       0.05200511 -0.22639927 -0.011754145 -0.021064542
0000a0 d2 36 99 be 91 28 4d bc eb 6e ee 3c b0 70 9a be
       -0.29924637 -0.012521879 0.029105624 -0.301641
0000b0 4c 8c 90 be b7 d4 01 bf de 9c 1e 3c c5 c9 81 be
       -0.28232038 -0.507152 0.009680955 -0.2534925
0000c0 62 72 30 3d b2 87 5f be d4 0a 1f be 47 2c 7c be
       0.043077834 -0.21829107 -0.15531474 -0.24626265
0000d0 76 5d 6b be 32 c6 ce bd 5c ee 9b be 26 05 38 bb
       -0.22984871 -0.100963965 -0.3045529 -0.002807924
0000e0 71 11 34 be 54 58 90 bd ae 22 31 be 64 29 05 3e
       -0.17584778 -0.07048097 -0.17298386 0.1300407
0000f0 4c 2c 95 3d eb d4 1d 3d cc 2c 89 bd c5 be db be
       0.072838396 0.038533133 -0.066979975 -0.42918983

3.weight f4 [64, 64, 4, 4]
000000 6c 7a 10 bc d5 04 44 bd a3 3e 3c bd 94 06 ae bd
       -0.00881825 -0.04785617 -0.045958173 -0.084973484
000010 0e 52 35 bd 29 17 a1 bb b8 2f 07 bd 45 e5 c4 bc
       -0.044267707 -0.004916091 -0.033004493 -0.024035105
000020 69 db 2f 3c 62 4f 2e bd 60 ba 08 bc 04 7c c9 bc
       0.010733464 -0.042556174 -0.0083452165 -0.024595268
000030 f5 09 a1 bc 92 87 73 3c df f9 47 bd d2 51 b8 bc
       -0.019658068 0.014863865 -0.04882228 -0.022499952
000040 55 0c 9a 3b 9d 64 6e bb e2 24 a7 bc f3 fc 3c bc
       0.004701177 -0.0036375888 -0.02040333 -0.011534917
000050 be 17 d0 bc fb bf 00 bd 18 26 30 bd 6e e5 50 bc
       -0.025401946 -0.031433087 -0.04300508 -0.012750013
000060 e9 ac 8b bc d4 e6 8d ba 8c 2a 09 bd 5b 63 fa bb
       -0.017050223 -0.0010826238 -0.03348784 -0.0076412386
000070 a0 53 38 bd 46 4c 88 bc 4c 39 6c bd 79 6a 39 bd
       -0.045001626 -0.016637933 -0.05767183 -0.045267556
000080 43 3c 15 bd 4e 95 fd ba d7 8b 01 3d af 71 53 3d
       -0.036434423 -0.0019346864 0.031627502 0.05162209
000090 81 bf ee bd e0 6c d1 bd 7e c8 b8 bc 4c c3 39 bd
       -0.1165762 -0.102258444 -0.02255654 -0.045352265
0000a0 d5 7e 0d be 37 34 c9 bd 2a b7 a2 bd 2c 0b 1e bd
       -0.13817914 -0.09824412 -0.07945092 -0.038584873
0000b0 82 62 f6 bd bd f2 0d bd f9 d9 b9 3c 8b 9b b3 3d
       -0.120305076 -0.03465532 0.022686945 0.08769902
0000c0 c6 b5 11 bc f8 08 a7 3a 60 dc 09 3d 36 28 1a bd
       -0.008893436 0.0012743762 0.03365743 -0.037636004
0000d0 2b 68 02 be 02 91 09 be 09 40 8f bd 9f 65 96 bd
       -0.1273505 -0.13434222 -0.069946356 -0.073436014
0000e0 9c 38 12 be 40 87 31 be 3c 72 02 be 64 ba 33 bd
       -0.14279407 -0.1733675 -0.1273889 -0.043878928
0000f0 75 11 4d be 00 35 1b be 9b d8 a8 bd 05 f5 7c bb
       -0.2002619 -0.15156937 -0.08244439 -0.0038598191
000100 f8 1f 6d bc 1e ef e2 3c 2e 98 b9 3d ae 25 06 3e
       -0.014472954 0.02770191 0.09062229 0.13100311
000110 7c 77 da 3d e3 c6 52 3d f9 69 3c 3d 06 03 0b 3d
       0.10667321 0.051459204 0.0459995 0.03393843
000120 e2 a5 45 3c 52 b8 cb 3c 3c dc db bc b9 32 6c bd
       0.012063475 0.024868164 -0.026838414 -0.05766556
000130 c1 8f 95 bd 6a a4 60 bd 7b 26 a5 bd 18 99 93 bd
       -0.073028095 -0.054844297 -0.0806398 -0.07206935
000140 1c fa 5f bc 28 40 12 bd 24 4d 89 3d 5b bc 24 3c
       -0.013670471 -0.035705715 0.067041665 0.010054673
000150 be 85 5a bd 84 df 8f bd fe d4 ca bb a4 d6 80 3c
       -0.053350203 -0.07025054 -0.0061899414 0.015727349
000160 7c b4 a8 bd 84 cd dc bd 19 f8 66 bd 6b 93 22 bd
       -0.0823755 -0.107813865 -0.056388948 -0.03969137
000170 e7 e1 e9 bd b0 3a d3 bd 18 f7 9f bc b8 2c c1 bc
       -0.114200406 -0.10313928 -0.019527003 -0.023580894
000180 30 e0 b7 3c 4b 89 d5 3d 29 b4 96 bb d1 57 8f 39
       0.022445768 0.10426577 -0.0045991135 0.00027340514
000190 4a 42 08 be a7 35 b2 bd 37 be 9b bc bf 3b 8e bd
       -0.13306537 -0.087016396 -0.0190116 -0.069449894
0001a0 c6 1f 5e be 8f 57 4b be c1 72 d0 bd 69 78 54 bd
       -0.21691808 -0.1985762 -0.101781376 -0.051872645
0001b0 8d ad f1 bd 2d 07 a8 bd bb c4 dc 3b 9f e5 ec 3d
       -0.1180068 -0.08204494 0.0067373193 0.11567234
0001c0 16 53 84 3d 40 7e 51 bc 67 31 af 3c 53 0d 22 3c
       0.0646116 -0.012786448 0.021385862 0.009890872
0001d0 39 68 4a 3d e4 94 11 3d aa 75 35 3d 87 0c a4 3d
       0.0494158 0.035542384 0.044301666 0.08010202
0001e0 8b 80 fa bc 36 2d c3 3c 80 3e 30 3c 1d c6 23 3c
       -0.030578872 0.02382527 0.010757089 0.009995964
0001f0 cf 85 bf bd 76 61 16 bd 1b 10 bd bd fa 7e b2 bd
       -0.09351694 -0.03671404 -0.092315875 -0.08715625
000200 b2 88 eb 3c f1 96 bb 3c f9 e6 0c 3e 68 a4 f8 3d
       0.028751705 0.022899123 0.13759984 0.12140733
000210 c0 8c 53 bd cc a5 d5 bb 15 a6 ef bb 4c 81 cc bb
       -0.0516479 -0.0065200087 -0.0073134997 -0.0062409993
000220 dd 45 12 be 62 be ea bd ae 9a c6 bd f6 6f 7f bd
       -0.14284463 -0.11462094 -0.096974716 -0.062362634
000230 3f 3e e2 bd 34 fc ad bd c3 55 00 bd d9 be 57 3d
       -0.11047029 -0.084953696 -0.03133179 0.05267224
000240 3b ca 1e 3d be 7b 9a 3d 69 41 0e 3e 9d 56 65 3e
       0.03876708 0.07543133 0.1389214 0.22396322
000250 ed 1b db 3d da 87 87 3d 63 77 be 3d c1 c9 9d 3d
       0.10698686 0.066177085 0.09300115 0.07704497
000260 cf 6b d5 3c 8b 68 4f bd 8b 54 ea bd 3e 69 f4 bd
       0.026052384 -0.05063681 -0.114419065 -0.11934136
000270 e3 b7 e0 bd 4b fb cf bd 11 ef f6 bd 67 78 2a bd
       -0.109725736 -0.10155352 -0.12057317 -0.04161873
000280 7b b1 13 bd a1 3c d4 bc 84 1b 25 3d 61 45 af 3d
       -0.03605793 -0.025907816 0.040309444 0.08558155
000290 49 ec 0e 3d d6 4f ae 3c 7b 13 72 3b a2 29 64 bb
       0.034893308 0.021278303 0.003693788 -0.0034814854
0002a0 3b f6 1d 3d 60 26 44 bc e5 98 8d bc 67 e0 a7 bd
       0.0385649 -0.01197204 -0.01728482 -0.08197098
0002b0 14 af 59 3d ad a7 d2 bc 80 0a a8 bc f6 ae e0 bd
       0.053145483 -0.02571472 -0.02051282 -0.10970871
0002c0 cb 26 2c 3d 06 57 d3 3d af 9b 8e 3d 60 7e a4 3d
       0.042029183 0.10319333 0.06963288 0.080319166
0002d0 dc cd 58 3c c5 b1 0f 3b 14 64 dd 3c 27 47 f8 bc
       0.013232674 0.0021926027 0.02702526 -0.030307366
0002e0 f9 09 e0 bd d8 4b 90 bd de 70 d9 bd 98 f4 45 bd
       -0.10939402 -0.07045716 -0.10617231 -0.048328966
0002f0 c0 3d 60 bd f8 78 01 bd 1b 43 1b 3c 79 7e 09 3d
       -0.05474639 -0.031609505 0.009476448 0.03356788
000300 11 0e dc bb a2 d2 f5 3c 08 4c c4 3d 1d 62 24 3e
       -0.006715544 0.030007664 0.09584814 0.16053052
000310 93 2c 5a 3d 27 f0 ea 3d 0a 97 12 3e f2 bc 91 3d
       0.053265166 0.11471587 0.1431543 0.071161166
000320 c4 75 85 bd 8f ea 4f bd f2 aa 98 bd 08 f6 22 be
       -0.06516603 -0.050760802 -0.0745448 -0.15914166
000330 f1 fb 31 be 39 23 10 be 42 81 1b be aa 10 3b be
       -0.17381264 -0.14075936 -0.15186027 -0.18268076
000340 e0 5b 47 3a 2d 2f 89 bb f3 e6 bc 3c eb 05 70 bc
       0.0007604938 -0.004186532 0.023059344 -0.014649848
000350 49 64 12 bd a6 85 b9 bc 14 92 1f bc 22 34 22 bd
       -0.03574017 -0.022646736 -0.009739418 -0.0396005
000360 e7 28 04 bc 67 0f 17 bd de 18 fc bc 5d e0 b1 bc
       -0.0080663925 -0.036879923 -0.030773576 -0.02171343
000370 58 da 25 3c 3a fd ac 3c a8 0d 44 3d 07 65 1d 3d
       0.010122858 0.021116842 0.047864586 0.038426425
000380 c2 8b 24 3d 4f fe ee 3b 81 48 83 bc 3f 10 97 bd
       0.040172346 0.0072934995 -0.016025783 -0.073761456
000390 d5 b2 e3 bc 45 a0 8d bc 4d 56 1c bd 82 09 c0 bd
       -0.027795235 -0.017288337 -0.03816824 -0.093768135
0003a0 64 7e 13 3b a0 f6 d0 3b 7c d9 36 3c 6c 34 9a bd
       0.0022505755 0.0063770562 0.011160251 -0.0752953
0003b0 95 ec e8 3c a6 f7 48 3d 60 b7 33 3d 81 02 3e bb
       0.028433124 0.0490643 0.043876052 -0.0028993192
0003c0 d7 a0 22 bc 72 51 a7 3c 20 0a dd 3d 95 16 15 3e
       -0.0099260425 0.020424578 0.10792947 0.14559396
0003d0 5b 40 aa 3c a4 e5 85 3d 7c ec cc 3d 31 4d 65 3d
       0.02078264 0.06537941 0.10006043 0.05598182
0003e0 4c 87 e7 bc 39 c4 6d bd cd b8 44 bd 83 df 8d bd
       -0.028262757 -0.05804846 -0.048027802 -0.06927397
0003f0 95 f2 e2 bd 70 b7 a7 bd 7e b7 81 bd ac 57 c6 bd
       -0.11081425 -0.08189285 -0.063338265 -0.09684691

3.bias f4 [64]
000000 6d 56 7c bd 76 27 72 3d 3a 34 27 bd f1 ff 89 3d
       -0.06160586 0.059119664 -0.04082129 0.0673827
000010 58 bf 8f 3c 94 28 81 bd 0d 31 ee 3c 1a b8 7f bd
       0.017547294 -0.06306568 0.029076124 -0.062431432
000020 1a 0e 08 bc a8 43 88 bc 0b ca 62 bc bd b5 93 3c
       -0.008304143 -0.016633824 -0.013842116 0.018030996
000030 95 66 3b 3d 30 78 5c bd 47 eb 9e bd 93 94 d4 3d
       0.045752127 -0.053825557 -0.07759719 0.10379901
000040 90 cf 42 ba 71 46 54 3c c8 54 b8 bd e0 c1 14 3d
       -0.0007431442 0.012956248 -0.09000546 0.036317706
000050 f3 e3 60 bd 1b 5d 3b 3d f8 61 24 3d 96 fa 6c bc
       -0.05490489 0.04574309 0.040132493 -0.014464041
000060 7b b7 0a 3d 02 11 41 3b a6 1d 0d 3d d1 5e 5e bd
       0.033866387 0.00294596 0.034452103 -0.054289643
000070 ff 26 07 3d 95 3a 78 bd ba 89 c6 bd 5c dd 86 3d
       0.032996174 -0.060602743 -0.09694238 0.0658519
000080 72 f7 68 bc 3d f1 8a bc c7 91 f1 bc b2 d5 a3 3c
       -0.014219152 -0.016960735 -0.029488457 0.019999359
000090 3e 84 e6 bd 4d b4 e1 3d ad 62 16 3d d9 37 a2 bd
       -0.11255692 0.11020718 0.0367152 -0.07920808
0000a0 a4 16 8f 3d 4a 46 a3 bd 99 32 ad bd 4d 75 c8 3d
       0.0698674 -0.07972391 -0.08456916 0.09787998
0000b0 c8 e5 b5 3d 84 0a 7a bd b4 42 b4 bd 69 ac bd 3d
       0.08881718 -0.061045185 -0.08801785 0.092614
0000c0 27 4d 91 bd 56 c4 99 3d d9 9a 8d 3d d8 52 c4 bd
       -0.07094794 0.07508151 0.069143005 -0.09586114
0000d0 c9 60 72 bc 1c c2 29 3d 0a c9 76 bd 27 1c 58 3d
       -0.014793583 0.041444883 -0.06025032 0.052761223
0000e0 3e b0 c5 3c 38 88 29 bd 21 29 9b bc 20 b0 da bc
       0.02413189 -0.041389674 -0.01894051 -0.026695311
0000f0 05 36 95 bb 76 46 09 3d 3f c0 76 3d 5b 9f 8d bd
       -0.004553559 0.033514462 0.060241934 -0.0691516

4.weight f4 [64]
000000 21 9d 74 3f bb b7 26 3f 61 44 74 3f 29 2d b0 3e
       0.9555226 0.651241 0.9541684 0.34409454
000010 21 11 54 3f 94 8b 82 3f 06 75 e8 3e 65 ea 6a 3f
       0.82838637 1.0198846 0.45401782 0.9176391
000020 46 1b 76 3f 84 ca 4a 3f ca c9 78 3f c7 4d d5 3e
       0.96135366 0.79215264 0.97182906 0.41660902
000030 a3 a4 13 3f 4f 5a 08 3f c3 32 92 3f 59 c1 21 3f
       0.5767309 0.532628 1.1421741 0.6318565
000040 6d 53 36 3f 01 58 00 3f 8f 78 69 3f 7f 5c 98 3e
       0.7122105 0.50134283 0.9119958 0.2975807
000050 62 b3 8a 3f e4 38 2f 3f 33 d5 26 3f 3f 5f 4f 3f
       1.0835993 0.68446183 0.65169066 0.8100471
000060 a4 a2 3e 3f f2 ac 1b 3f f0 d5 64 3f f5 2b 57 3f
       0.7446692 0.6081077 0.8938894 0.8405145
000070 99 57 87 3e cf 9d 80 3f 49 4f 55 3f 42 a4 dd 3e
       0.2643402 1.0048159 0.83324105 0.4328938
000080 49 5b e3 3e 4f 0e 81 3f 9c dc 27 3f 4c 99 47 3f
       0.44405583 1.0082492 0.65571 0.7796829
000090 4e d8 7e 3f b9 48 de 3e 89 d4 6a 3f ba 26 2d 3f
       0.99548805 0.43414858 0.9173055 0.6763722
0000a0 50 df 1c 3f 86 69 06 3f 6c 19 83 3f 1c a8 2b 3f
       0.6127825 0.52504766 1.0242133 0.6705339
0000b0 3a c7 00 3f 2b 16 6f 3f 44 a4 69 3f ff 13 f1 3e
       0.50303996 0.933932 0.91266274 0.47085568
0000c0 37 3b 78 3f d6 ce cf 3e c9 67 dd 3e 6f 08 80 3f
       0.96965355 0.4058749 0.43243244 1.0002574
0000d0 cc a6 41 3f d8 9a 38 3f 4a 20 79 3f 55 67 08 3f
       0.75645137 0.7211127 0.97314894 0.5328267
0000e0 62 ed 4a 3f 31 7f 4e 3f fa cd 64 3f 14 75 56 3f
       0.7926847 0.8066283 0.89376795 0.837724
0000f0 42 0c 65 3f fa fd 52 3f 37 4b 32 3f ab fb 51 3f
       0.8947183 0.8241879 0.6964602 0.8202464

4.bias f4 [64]
000000 b1 53 98 be e3 58 32 bf 27 d1 79 be f3 12 68 be
       -0.2975135 -0.6966688 -0.24396192 -0.22663479
000010 69 ed 39 bf 6c 0c 06 be 31 35 8f be ea 5b 98 be
       -0.72627884 -0.13090676 -0.2797027 -0.29757625
000020 6d cb 47 bf b8 bb c1 be 98 55 07 bd 6d cd ff be
       -0.7804478 -0.3783853 -0.033040613 -0.49961415
000030 ea e7 19 bf 33 33 c4 3d 32 76 98 bd b1 82 07 bf
       -0.601195 0.09580078 -0.07444419 -0.52933794
000040 ff c1 e1 be a7 5d 7f bf f3 38 aa be e9 b2 66 bd
       -0.4409332 -0.9975228 -0.33246574 -0.056322966
000050 3a 88 8c be bc 5c c8 be a1 da eb be d7 1e 95 be
       -0.27447683 -0.3913325 -0.46065238 -0.2912509
000060 d3 9c 70 be 76 91 cd be fb e9 34 bf dd 5b 0d bd
       -0.23497324 -0.4015004 -0.70669526 -0.034511436
000070 94 eb 22 bf 57 c2 0c bd b7 e3 4e be a8 41 1e bf
       -0.63640714 -0.034365024 -0.20204054 -0.61818933
000080 58 b1 48 be 3f 19 e4 be bf 73 ab be 2c 4c 94 be
       -0.19598901 -0.4455051 -0.33486745 -0.28964365
000090 e8 ac 65 bc 0e 9d 1c bf de db 7b bf e7 ec e2 bd
       -0.014018275 -0.61177146 -0.98382366 -0.11080342
0000a0 6f a1 08 bf aa bb f5 3c 0e 56 3d be e5 cb 4e bf
       -0.5337133 0.029996712 -0.18489859 -0.8077987
0000b0 3e ec 49 bf a2 81 31 3b 35 ff 77 be 70 66 9f be
       -0.788761 0.0027085324 -0.24218448 -0.3113284
0000c0 a0 b2 6f be 02 1b 8f be 1c b4 27 bf 1a c6 4e bc
       -0.23407984 -0.27950293 -0.655092 -0.012620473
0000d0 84 ab ce be 98 15 b9 be 63 53 c5 bd 92 60 eb be
       -0.4036523 -0.36149287 -0.096350454 -0.45972115
0000e0 de 8c 97 bf b4 d7 8d bc ba 56 93 bf 48 17 e3 be
       -1.1839864 -0.01731477 -1.1510842 -0.443537
0000f0 f4 64 e5 be 30 f5 ec be 62 43 28 bf 93 c2 f5 bd
       -0.44803584 -0.46280813 -0.6572782 -0.12000003

6.weight f4 [64, 64, 4, 4]
000000 fc b8 f6 3b 81 7f 6d 3d ed f5 d6 3d 07 51 d5 3d
       0.007529376 0.057982925 0.10496125 0.10415845
000010 7a da b4 3d 3e 17 d3 3d 74 6a d8 3d eb d0 a3 3c
       0.088307336 0.103071675 0.10567179 0.01999708
000020 b0 44 43 3d c1 33 66 3d 87 1a 2e 3d ab a6 f0 bc
       0.047672927 0.0562017 0.042505767 -0.029376348
000030 d4 e8 09 3d 92 54 64 3c 9a 06 8d bc 19 0b d6 bc
       0.033669308 0.013936179 -0.017215062 -0.026128339
000040 c6 f4 20 bd 8b 31 ca bc b9 1d 2e bd d5 c0 c5 bb
       -0.039295934 -0.024681827 -0.042508814 -0.0060349503
000050 ee 5e 84 bd 2a 7d 56 bc c2 83 ca bd d8 1c 10 bc
       -0.06463419 -0.013091365 -0.09888412 -0.008795939
000060 66 52 a0 bd 0d e4 43 bd 76 89 2a 3b 81 a2 98 3c
       -0.07828216 -0.047824908 0.0026021875 0.018632175
000070 9d 7a 9c bd d6 ee 57 bc c5 fd ae 3d d0 f3 1a 3d
       -0.07640574 -0.0131795015 0.085444964 0.037830174
000080 06 db 7f 3c a7 cb a8 3c 22 0d db bb c9 1c 93 3b
       0.015616184 0.020604922 -0.006684915 0.0044895154
000090 5c 92 75 ba 9d ca 4d 3c 12 7d f1 bc c3 3b dc bc
       -0.00093678175 0.012560514 -0.029478583 -0.026883965
0000a0 77 52 89 3c e1 2b 8b 3c a4 2a 77 3c 94 d9 3b bc
       0.016762955 0.016988697 0.01508585 -0.011465449
0000b0 2a 91 81 3c d5 0e 24 bd 52 7e 8d bb 84 4a 9c bc
       0.01581629 -0.040053207 -0.004318037 -0.0190785
0000c0 1c f3 ac 3c 16 eb 1e 3d d2 bc 23 3c ff 13 45 3d
       0.021112017 0.038798414 0.009993749 0.048114773
0000d0 b5 6f b8 bc c5 05 3d 3d 01 c1 b3 bb 79 b0 fa bb
       -0.022514204 0.04614808 -0.0054856543 -0.0076504317
0000e0 a6 bd 13 bd c9 5f fd 3b c0 db 8c bb fa 57 5f 3d
       -0.036069535 0.0077323657 -0.004298657 0.05452726
0000f0 bb f0 f6 3c ae fc 23 3d ce 17 27 3d 71 bf e5 3c
       0.030144086 0.040035896 0.040794186 0.028045388
000100 8a a7 2a bc 41 1b 88 bc d5 a1 93 bc 3f b7 95 bc
       -0.010415921 -0.016614558 -0.018021503 -0.018275855
000110 25 03 95 bb fc 47 ab bd be 61 a6 bd aa dc a3 3b
       -0.004547494 -0.08363339 -0.081241116 0.0050006704
000120 68 8c 0b bc e2 31 9d bc 9b f6 9c 3c ae 3e 5e 3d
       -0.008517362 -0.019188825 0.01916056 0.054258995
000130 de bc 2c bd b6 10 31 bd 83 d1 14 3d 7a 7f b8 3c
       -0.042172305 -0.043228827 0.03633262 0.022521723
000140 cb 2f 72 bd 94 bb 92 3d a2 14 11 3e 64 6e d1 3d
       -0.05912761 0.07164684 0.14168027 0.102261335
000150 05 d3 8e 3b 30 a7 a0 3d c5 39 fa 3d 8c 2b 5e 3b
       0.0043586516 0.078443885 0.1221805 0.0033900468
000160 e1 9a 03 3e bb a0 24 3e be 2f 8a 3b 50 b4 c5 bd
       0.1285205 0.16076939 0.004217117 -0.096535325
000170 33 2a 8a bc 36 98 ca bd 39 e0 d0 bc 5e c3 15 bd
       -0.016865825 -0.09892313 -0.025497543 -0.03656327
000180 0c a8 b7 3d 16 84 d4 3d 48 36 1b 3d c8 c9 0d 3d
       0.08967599 0.10376756 0.037893564 0.03461626
000190 66 ba 18 bd bd 89 fe bc 19 e7 6c bd 9d 9b bf bb
       -0.03728714 -0.031071538 -0.05783758 -0.005847408
0001a0 5a 3f de bc 58 f6 b4 3c 96 fa 3c 3d 4c 78 ac 3d
       -0.027129818 0.022090122 0.046137415 0.08421382
0001b0 3a f2 09 3e 4b 15 0f 3e 27 75 85 3d a0 b3 d6 3d
       0.13471308 0.13972966 0.06516486 0.104834795
0001c0 19 8b 95 3c 94 f7 18 3b af 05 c1 3c 07 ef 01 bd
       0.018254803 0.0023340927 0.02356228 -0.031722095
0001d0 87 97 32 3a b7 58 a4 bc 8d e5 4e 3b 72 7f 7a 3b
       0.00068127405 -0.020061834 0.0031569928 0.0038222936
0001e0 6d 76 87 3c 79 8f fb bc 03 1c fd bc 13 82 96 bc
       0.016535962 -0.030708062 -0.030897146 -0.018372571
0001f0 73 73 a3 bc 89 67 47 bc 7b 00 1b bd 81 c8 46 bc
       -0.019952511 -0.012170681 -0.037842255 -0.012132765
000200 7b be c6 bd 70 fc 2f 3d c7 a2 8a 3d 54 87 fd 3d
       -0.097043 0.042965353 0.067693286 0.123793274
000210 12 74 18 3d 5b ad f5 bc 5c 9f dc 3d c6 48 8c 3d
       0.03722007 -0.029989889 0.10772583 0.06849818
000220 1b db 2c 3d a4 2d b7 3c ba 0b 2b 3d 86 79 e1 bd
       0.042201143 0.02236063 0.04175923 -0.11009507
000230 c0 6c aa 3c 9b 70 7a 3d d8 31 8e bc 4b 19 c3 bc
       0.02080381 0.061142545 -0.017357752 -0.023815772
000240 9e 75 bf bd dc e4 15 bd f8 3f b0 3d cf 6f 48 3e
       -0.093486056 -0.03659521 0.08605951 0.19573902
000250 55 44 5e 3c 7a 44 91 3d d9 fc 37 3d 7a 03 b7 3c
       0.013566096 0.07093139 0.04491887 0.022340525
000260 84 82 4f bd a3 f5 85 bd 73 81 82 bd cf 5c c0 bc
       -0.05066158 -0.06540992 -0.06372347 -0.023481755
000270 d3 af 68 3c 67 df ec bc 0e 2b 2e 3d 2c 73 ab 3d
       0.014202076 -0.02891512 0.04252153 0.08371577
000280 69 c6 70 3b c3 6a b3 bc 17 3c 1d 3d 11 c4 e5 3c
       0.0036739355 -0.021901494 0.038387384 0.028047593
000290 2e 34 2b 3c 87 67 0a 3d 9b fa 49 3c 3a ec 98 bc
       0.010449452 0.033790138 0.012327815 -0.01866733
0002a0 a4 42 b6 bc 87 93 7e 3c b8 35 9b bc 27 2f a9 bc
       -0.022248574 0.015538103 -0.018946514 -0.020652367
0002b0 46 4b 16 3d 62 88 81 bc 23 a0 93 bc 0f dc 3d 3c
       0.03669288 -0.015812103 -0.018020695 0.011588111
0002c0 b7 09 0a bc 5d bd 2e bd c3 d1 16 bb 34 18 29 3d
       -0.008425168 -0.04266106 -0.0023013211 0.041282848
0002d0 c6 f2 9d bb c7 8b ad 3c ad ff 0a bd ee 0c 5c 3b
       -0.0048202006 0.021184815 -0.033935238 0.0033577043
0002e0 04 6c 8e 3c 45 30 04 3d c7 88 0e 3c b6 1f ae 3c
       0.01738549 0.032272596 0.008699602 0.021255355
0002f0 70 fb 18 bc ba ba 00 3c 7d 81 ac 3a f8 2c 3f bc
       -0.009337291 0.007857019 0.0013161149 -0.011668436
000300 4b a2 85 3d 49 d3 b4 3d 34 df c1 3c c1 68 ab bc
       0.065250956 0.08829362 0.023666002 -0.020923974
000310 d2 6e 29 3d 33 e5 90 3d 5a a6 20 3c 78 9c 38 bd
       0.041365452 0.07074966 0.009805286 -0.045071095
000320 72 e6 23 bc 09 7a 84 3d c2 54 3c 3d 28 0c 7f 3d
       -0.010003673 0.06468589 0.04597927 0.062267452
000330 b5 19 c4 3d 6d 54 99 bb 77 19 57 3d 22 81 b4 3d
       0.09575216 -0.004679254 0.05251452 0.08813693
000340 14 5c 0d be 41 08 27 3d ed 24 4d 3e 6a bc 0e 3e
       -0.13804656 0.040779356 0.20033617 0.13939062
000350 5e 12 22 bb 27 c6 b2 3c d3 2e ac bd d0 09 78 bd
       -0.0024730186 0.021823002 -0.084073685 -0.060556233
000360 ee c6 35 bd 2f 6e fd bd 8b 88 b1 bd 17 00 24 bd
       -0.044379167 -0.123745315 -0.08668622 -0.04003915
000370 d8 b1 15 3c 09 90 1c 3e ef c2 df 3d d0 22 90 3d
       0.00913664 0.1528932 0.109258525 0.0703789
000380 31 a9 aa bc 47 06 9f bd 0e 19 29 bc 46 68 f7 bc
       -0.02083263 -0.07764869 -0.010320915 -0.030201089
000390 ec 6e 76 bd 37 bd 16 be 8e b2 d9 bd 15 32 f6 3c
       -0.060164377 -0.14720617 -0.1062976 0.030053178
0003a0 68 3f 6f bc f5 82 b7 bd 23 76 9c 3b e2 7a 6c 3c
       -0.01460252 -0.08960525 0.004774825 0.014433594
0003b0 82 fe cd bc e9 23 a9 bc 4c 85 70 3b 00 68 62 3b
       -0.025145773 -0.020647006 0.0036700545 0.0034546852
0003c0 86 8a 6f 3d 55 14 65 3c 17 c8 80 3c d2 b0 9f bc
       0.058481716 0.013981898 0.01572041 -0.019493494
0003d0 b0 c5 06 3d 8d f1 2b bc 3e 6c f8 bc 3f 18 5a bd
       0.032903373 -0.010494602 -0.030325051 -0.05324578
0003e0 8b 74 0a bd ac a0 a4 bd 3d ab 59 3c 6a f2 c7 3c
       -0.03380255 -0.08038458 0.013285455 0.024407584
0003f0 a7 b7 01 3c 27 dd 08 3b a9 04 97 3d 8a 58 b5 3d
       0.007917321 0.002088377 0.07373936 0.08854778

6.bias f4 [64]
000000 6d 0d 49 bd 11 72 07 3d 19 2e 15 bd a4 53 9a 3d
       -0.04908507 0.033067767 -0.036420915 0.075354844
000010 d4 4c ae bd f3 c4 da 3d dd e3 4d 3d e6 c2 e6 bc
       -0.085107476 0.10682096 0.050266135 -0.028169107
000020 af 89 20 3e 41 46 59 be 8b ba 89 3e ab fc 8f be
       0.15677522 -0.21218206 0.26900133 -0.28122458
000030 46 66 ca 3c 24 b0 2b bd 4b 9a 9a bc a6 db 50 bc
       0.02470697 -0.041916028 -0.0188724 -0.012747681
000040 94 ba 09 3d 7d 75 20 bc 92 19 59 3d fb 2e 4b bd
       0.0336252 -0.009793636 0.0530029 -0.04960535
000050 71 56 19 bc 0e 19 1e bd d3 ec 8b 3d f4 49 12 bd
       -0.009358988 -0.038598113 0.0683228 -0.03571506
000060 a3 f2 93 3d 60 a7 bd bd 37 30 6a bd 5a ca 4d 3d
       0.07224014 -0.0926044 -0.057174888 0.050241806
000070 5a ce ba 3c 72 88 3b bd 8d 72 d4 bd d8 d1 f0 3d
       0.022803474 -0.04578442 -0.10373411 0.117587745
000080 1d 90 5b ba a0 4c 7b bc 18 2d 8b 3e a1 99 6f be
       -0.00083756616 -0.015338093 0.2718284 -0.23398449
000090 59 03 2d be d6 4a 36 3e fa 93 39 be 9f f5 54 3e
       -0.16895808 0.17801985 -0.18122855 0.20796822
0000a0 a3 57 9a bc 83 21 a2 bc 6f e1 14 3e 77 54 17 be
       -0.018840617 -0.01979137 0.14539121 -0.14778315
0000b0 0d 8c 89 bd 64 a7 c7 3c a5 d9 6e be 59 cd 4e 3e
       -0.06716166 0.02437181 -0.23325212 0.20195521
0000c0 cd 31 5b bd f9 cb 62 3d e8 38 b8 3d cc 43 ac bd
       -0.05351429 0.055370305 0.08995229 -0.08411369
0000d0 6d df 02 bc 94 fd 13 3c 15 e1 39 be 92 f8 12 3e
       -0.007987839 0.009032626 -0.18152268 0.14352635
0000e0 9c 61 1b 3e 30 29 37 be 6f 9a 10 bd a3 b7 e2 3c
       0.15173954 -0.17886806 -0.03530353 0.027675455
0000f0 a9 eb 1e bc c1 fb 68 3c 5d 01 67 3d a7 08 b6 bd
       -0.00969974 0.014220179 0.056397785 -0.08888369

7.odefunc.norm1.weight f4 [64]
000000 79 61 77 3f 05 19 78 3f b2 32 2d 3f b8 3e 79 3f
       0.96633106 0.96913177 0.6765548 0.97361326
000010 a1 1d a0 3f 49 89 77 3f 1f 95 69 3f 04 94 82 3f
       1.2509042 0.96693856 0.91243166 1.0201421
000020 5e f0 84 3f 1e 22 92 3f e2 1b 78 3f c3 ba bb 3f
       1.0385854 1.1416662 0.96917546 1.466637
000030 c0 de 6f 3f 11 22 a2 3f 80 71 9f 3f 33 d9 54 3f
       0.93699265 1.2666646 1.2456512 0.8314392
000040 05 69 ac 3f be a0 67 3f a4 38 83 3f 40 e7 a6 3f
       1.346955 0.9047965 1.025166 1.3039322
000050 2a 74 91 3f 43 1a 8d 3f 11 dd 84 3f 07 39 73 3f
       1.1363575 1.102364 1.0379964 0.9500889
000060 ef 04 68 3f 7d 11 9a 3f fa 4d 81 3f a5 db 52 3f
       0.9063253 1.2036587 1.0101922 0.823664
000070 3f 8c 5f 3f 11 ce 5c 3f ec f7 a6 3f 5d fc 7c 3f
       0.87323374 0.8625193 1.304441 0.98822576
000080 05 f2 83 3f 20 97 2c 3f 63 6b 30 3f 9b 01 a7 3f
       1.0308233 0.674181 0.6891386 1.3047365
000090 5e 37 a8 3f 1e 0d 83 3f 32 64 84 3f 41 0f 4d 3f
       1.3141897 1.0238378 1.0343077 0.801014
0000a0 9e d7 80 3f c9 7a 10 3f 34 0e 77 3f 0b 4b 91 3f
       1.0065801 0.56437355 0.9650605 1.1351026
0000b0 d4 ff a5 3f 1f aa 94 3f 37 e2 8f 3f 6e 89 81 3f
       1.2968698 1.1614417 1.124091 1.0120065
0000c0 72 78 21 3f 51 8e 7d 3f 70 b0 7c 3f 7d e7 a8 3f
       0.6307441 0.9904528 0.9870672 1.3195645
0000d0 66 b2 80 3f b3 74 ed 3e ce b5 9d 3f f7 11 7d 3f
       1.0054443 0.46378097 1.2321107 0.9885554
0000e0 8a 02 34 3f 09 98 9a 3f 35 9e 8c 3f 1c 5f 95 3f
       0.70316374 1.2077647 1.0985781 1.166965
0000f0 3a 37 24 3f 8f 00 8a 3f 46 94 6f 3f 60 c7 8e 3f
       0.6414677 1.078142 0.9358562 1.1154594

7.odefunc.norm1.bias f4 [64]
000000 f9 99 03 bf 2f 4c 15 bf 9b 05 15 bf 13 c5 28 be
       -0.5140682 -0.5831937 -0.5821168 -0.16481428
000010 17 1c 0b 3d 9c 73 20 bf 83 09 09 bf ac 4e 6b be
       0.033962335 -0.62676406 -0.5353014 -0.2297923
000020 60 3a 41 bf 4e 57 82 bc 22 9c 0e bf 35 2f 5b be
       -0.754797 -0.01591077 -0.5570699 -0.21404727
000030 63 2a f8 be 04 51 fd bd 4b e5 32 be 97 37 13 bf
       -0.48469839 -0.12368968 -0.17470281 -0.575067
000040 75 32 78 be 49 41 5f bf 0d 55 3f bf a6 12 dd be
       -0.24237998 -0.8720899 -0.7473915 -0.4317829
000050 22 3f 15 bf f2 ad 0e bf 6f 3c c1 be a7 a9 0a bf
       -0.5829946 -0.5573417 -0.3774142 -0.5416512
000060 46 4b c3 be 5e fa c6 be 1f c6 91 be 97 a6 2f bf
       -0.38143367 -0.3886289 -0.28471467 -0.6861357
000070 c1 37 eb be 14 12 65 be f7 ff 42 be 0c 5a 01 bf
       -0.45940974 -0.22370178 -0.19042955 -0.50528026
000080 f1 5a ad bc fb a8 19 bf 40 d5 a1 be 85 6e 2a be
       -0.021161528 -0.6002347 -0.3160801 -0.16643722
000090 8f 5b 6a be e0 9f 27 bf a3 fb a6 be 5d 90 ef be
       -0.2288649 -0.65478325 -0.3261386 -0.46789828
0000a0 e2 1a af ba 99 40 22 bf 35 fc 27 bf 6d f0 be be
       -0.0013359452 -0.6337982 -0.6561921 -0.37292805
0000b0 87 69 d4 be 63 5c d2 be 27 11 92 be ea cd 8a be
       -0.4148676 -0.4108611 -0.2852871 -0.27110225
0000c0 26 60 00 bf 62 2d e2 bc 8a b9 b3 be 93 43 8d be
       -0.5014671 -0.02760953 -0.35102493 -0.27590618
0000d0 33 a4 cf 3b 59 2a ec be 94 72 ad be 32 f4 0f bf
       0.0063367127 -0.4612606 -0.3387648 -0.5623199
0000e0 96 03 e2 be 3a 37 a0 be a4 94 c5 be ea d9 e5 be
       -0.4414336 -0.31292135 -0.38589966 -0.44892818
0000f0 51 15 1e bf 32 19 85 bd 7a 71 e7 be a5 4f 0a be
       -0.61751276 -0.06498946 -0.45203763 -0.13506944

7.odefunc.conv1._layer.weight f4 [64, 65, 3, 3]
000000 37 81 ee bb 4f 34 eb bc 9c 70 26 bd e9 91 e0 ba
       -0.007278587 -0.028711466 -0.040634736 -0.0017133328
000010 03 24 dc bc 77 7e d7 3c 26 20 22 3d da fe 37 3d
       -0.02687264 0.02630542 0.03958144 0.04492078
000020 68 59 3a bd 16 40 9f bc 6a 92 c5 bb 46 91 ca 3c
       -0.04549542 -0.019439738 -0.006029417 0.024727475
000030 9b a3 33 bd ba e4 0e bd 57 cf 06 bd 28 99 8e 3c
       -0.0438572 -0.0348861 -0.03291258 0.017407015
000040 dd cf fe 3b b4 27 7f b9 7b ff bc bb a3 3f bf bc
       0.007776244 -0.00024333486 -0.0057677603 -0.023345774
000050 0c b2 94 3d 73 5a ba bd 6c 8c 26 3d 1b 20 42 3d
       0.07260522 -0.09099283 0.04066126 0.0473939
000060 38 0a 7a bc 38 42 81 3d 3a 57 9f 3d 4b 55 58 bd
       -0.015261225 0.06311458 0.07780309 -0.052815717
000070 66 d1 79 3d b6 3a 66 3d 80 22 37 3d e1 e6 eb 3d
       0.060990714 0.056208335 0.044710636 0.11518646
000080 e9 5f d7 ba 41 9d 5b 3d 26 48 89 3d 18 c1 a7 3d
       -0.0016431782 0.053616766 0.06703214 0.081911266
000090 29 0e 71 3c 6a c4 1f 3d 1c 95 7d bb ee d0 80 bd
       0.014712849 0.039005674 -0.0038693612 -0.0628985
0000a0 da 01 83 bd 38 1a e9 3b 9f d7 80 bd 82 08 8b 3c
       -0.063968375 0.007113721 -0.062911265 0.01697183
0000b0 06 dd 5b 3c 92 15 1b bd ae 7d a3 bd 24 f3 07 3c
       0.013419395 -0.037862368 -0.07982956 0.008297715
0000c0 e3 2a 2d bd ef 81 68 bd cd fe e0 bc af 8e 21 bd
       -0.042277228 -0.05676454 -0.027465248 -0.039442714
0000d0 01 e8 cc 3c 78 84 9f 3b 2f 42 6a 3d 5c 7f f2 3d
       0.025012972 0.0048680864 0.057192024 0.11840698
0000e0 86 d1 0a bd 88 12 37 3e a0 a5 1a 3e 36 7c 3c bd
       -0.033891223 0.17878163 0.15102243 -0.046016894
0000f0 a5 ba 16 3d ba 4f 9b bd c9 2e c2 bd e2 56 c2 bd
       0.03679909 -0.07583566 -0.0948158 -0.09489228
000100 b7 b8 b5 bc 8d 5e 3e 3c 46 28 94 bd ee 10 42 3d
       -0.022182805 0.011619222 -0.07234244 0.047379427
000110 d0 77 52 3c 12 a6 30 bd b6 a7 4a 3d 5d 64 a9 3d
       0.012845948 -0.043127127 0.049476348 0.08271096
000120 1d 01 25 3d d4 69 00 be cd 3a 84 bd 3f 82 b6 3c
       0.040284265 -0.1254037 -0.06456528 0.022278903
000130 54 f7 00 be 34 84 0f bd 1a c6 47 3c 70 22 c2 bc
       -0.12594348 -0.035038188 0.012193227 -0.023698062
000140 a6 d8 38 3c 2b 06 5a bd c6 66 20 bd 53 94 cf 3d
       0.011282122 -0.05322854 -0.039160512 0.101357125
000150 eb 25 a2 bd 72 ba 93 3d c1 03 c7 3c 42 a1 f6 3c
       -0.079173885 0.07213296 0.024293782 0.03010619
000160 c7 0a cf 3d e6 ce 21 3d ef 50 8a bc f2 d8 30 3c
       0.101094775 0.039503954 -0.016884295 0.010793911
000170 c8 48 06 3b 0d 91 6e bd 08 8b e5 bb cb 1e 41 bd
       0.0020490158 -0.0582438 -0.007005099 -0.047148507
000180 24 2e 61 bc 95 b9 40 bd 7c 11 09 bd 0e 1b 59 bc
       -0.013743911 -0.047051985 -0.03346394 -0.013251079
000190 b8 e3 b7 bc 8e 5c a2 3c ce fa 9f 3c 98 85 2b bc
       -0.022447452 0.019819524 0.019528773 -0.010468863
0001a0 89 63 8b 3b 48 22 c0 bd 0e b0 af bd a1 de 14 bd
       0.004253809 -0.09381539 -0.08578502 -0.036345128
0001b0 42 59 a0 bb 99 f1 e9 bc a0 53 90 bd aa d7 9d 3c
       -0.004893453 -0.028557586 -0.070472 0.019267876
0001c0 c5 2e 4e bd 82 a0 a8 3c 39 57 c9 bd e7 af 7d bc
       -0.05033757 0.020584349 -0.098310895 -0.015483833
0001d0 14 0c 5c 39 31 ac 3e bc 5f b4 7c 3d 8b 1c e8 bb
       0.00020985334 -0.011637733 0.061695453 -0.0070834807
0001e0 d0 5a 4f 3d e2 83 ac 3c 33 c0 22 3c e0 d5 30 bd
       0.050623715 0.02105898 0.009933519 -0.043172717
0001f0 e2 15 f7 bd ab c4 8d 3d 5c a8 10 3d 26 36 3b 3c
       -0.12064721 0.06922277 0.03531681 0.011426484
000200 6d 9e 2e bd 3f ff 54 bd 30 24 4a 3d a7 f6 1c ba
       -0.042631555 -0.052001234 0.049350917 -0.0005987682
000210 95 40 2e 3c f3 50 8f 3d fb 34 2c 3d 6f ca 9c bc
       0.010635515 0.06997862 0.042042714 -0.019139497
000220 f5 a8 a7 bd bf d2 81 bd 69 58 20 bd 2b 7a bf bd
       -0.08186523 -0.06339025 -0.039146814 -0.093494736
000230 34 3a da bc 2a 6a 80 bd e2 7d 4d bb 00 be 95 3c
       -0.026639082 -0.06270249 -0.003135555 0.018279076
000240 c2 66 13 3d 7f 05 f2 3d 6f f7 a4 3a 8f 7e ae 3d
       0.03598667 0.118174545 0.0012585948 0.08520233
000250 be c8 cd bb 28 a9 0e bd 09 56 ab 3c 00 0a 13 be
       -0.006280034 -0.03482929 0.020915048 -0.14359283
000260 d8 f0 94 bd 5b d1 b2 bc b0 31 b3 bd 6e f2 c1 3a
       -0.072725 -0.021828344 -0.087497115 0.0014796981
000270 18 6a 90 bd aa 6f b9 bd d8 c3 1d bd 8b 1e 19 3c
       -0.07051486 -0.09054501 -0.03851685 0.009345661
000280 3c f8 ef bb b1 9f bb 3c 03 14 df 3a 49 81 d3 3d
       -0.007323293 0.022903295 0.0017019514 0.103273936
000290 1e 92 f0 bc f1 26 80 3d ad ab 75 bd 7b 13 9a bd
       -0.02936655 0.062574275 -0.059978176 -0.07523247
0002a0 e5 f3 df 3c f8 05 bf bd 55 33 9e bc ec 65 18 bd
       0.027337978 -0.0932731 -0.019311586 -0.037206575
0002b0 3c fc e6 3c 66 51 84 3d fa 8b ec 3b 4e bf 97 3d
       0.028196447 0.06460838 0.007218835 0.07409535
0002c0 4e eb 9f bd 07 6e 2d 3e d4 ee 8a bc 37 82 9f bc
       -0.07808553 0.16936503 -0.016959585 -0.019471271
0002d0 01 c0 84 bd 2c b4 2d be 3f 4e a6 bd dc d0 25 ba
       -0.06481934 -0.16963261 -0.08120393 -0.0006325373
0002e0 26 41 6b bd 96 a3 00 be 53 ec 06 3e 61 69 53 bd
       -0.057435177 -0.12562403 0.13176088 -0.05161417
0002f0 4d cb cb bd 6c 0d 4a bd 30 5d 85 3c af 45 03 bd
       -0.09950886 -0.049329206 0.016279787 -0.032048877
000300 61 df fb bc fc 3e 45 bd c6 26 a1 bd 81 86 a9 bc
       -0.030746164 -0.04815577 -0.078687236 -0.02069402
000310 7f 2b d7 bd 65 ad e2 bb d3 b8 c3 bd c6 f5 05 be
       -0.10506343 -0.006917643 -0.09556737 -0.13082036
000320 7d be 80 3b 36 cf a4 bd a1 c1 5a be 04 16 e9 bd
       0.003928958 -0.08047335 -0.21362926 -0.11381152
000330 33 3d d4 bd 30 ee bb bd ff 8f bb bc 83 bc 4d bd
       -0.10363235 -0.0917629 -0.022895811 -0.050228607
000340 c5 ce 85 bc 10 a3 de 3c 70 94 35 bc a8 04 b4 bc
       -0.016333947 0.027177364 -0.011082754 -0.021974877
000350 12 70 d2 3c 5e b8 b8 bd 13 69 6c bd 0e 3c d8 3c
       0.025688205 -0.0901954 -0.057717394 0.026395824
000360 1b e2 c4 bc b9 83 a1 bd 17 f8 c4 bd e4 81 d9 3c
       -0.024033597 -0.07886452 -0.09617632 0.026551194
000370 e4 a2 42 be 63 83 4c be f5 08 2e be 4d b9 82 be
       -0.1900745 -0.19971995 -0.16995604 -0.25531998
000380 e1 19 8a bd 52 2b 24 bd 7d 88 97 bd f3 d4 88 ba
       -0.06743217 -0.040080376 -0.0739908 -0.001043944
000390 9a 55 3b bd 02 c7 09 bd 7e 53 3c bc d7 ae 5b bd
       -0.045735933 -0.033637054 -0.011494515 -0.053633537
0003a0 3f 57 81 3c bf f2 87 bd 22 ed 99 bc 5d 72 fb bd
       0.015788672 -0.06638097 -0.018789832 -0.122776724
0003b0 c6 92 c7 3c 3e 77 4b be 60 06 15 be f6 8e 5d bc
       0.02436198 -0.19869706 -0.14553213 -0.013522854
0003c0 26 55 0e bd 8b 02 77 bc d2 31 07 bc 92 a7 5e bc
       -0.034749173 -0.01507629 -0.008251624 -0.013589757
0003d0 e3 24 74 bc 2e 48 72 3d 8d f7 52 bd 74 11 d8 3a
       -0.014901373 0.059150867 -0.051505614 0.0016484694
0003e0 a7 f7 3f bd 24 5d 7f bd 5a b6 09 bd 8e 59 3d bc
       -0.04686704 -0.062344685 -0.03362117 -0.011556996
0003f0 8d 71 45 3d 00 34 be 3d 95 43 53 bc e1 82 27 3e
       0.048203994 0.09287262 -0.012894531 0.1635852

7.odefunc.conv1._layer.bias f4 [64]
000000 a9 99 1b bd 1c 47 80 3c 1a cb fa 3c 5b da ad ba
       -0.03798834 0.015658908 0.030614424 -0.0013263928
000010 52 d1 34 3d 32 07 48 bd 7c d8 8c bc 6c ab 10 3d
       0.044144936 -0.048834987 -0.017193072 0.03531973
000020 45 13 56 bd 36 7a 51 ba ae 84 24 3d 4d a0 e8 3c
       -0.05226447 -0.0007990928 0.040165596 0.02839675
000030 84 12 9d bd d6 62 7a 3d a7 eb af 3d 82 b9 81 bd
       -0.07669547 0.061129414 0.08589869 -0.06334211
000040 51 d3 51 3c 89 e7 1f bd c8 d5 af 3d 2d cf a1 bd
       0.012806729 -0.03903917 0.085856974 -0.07900844
000050 91 16 06 bb f5 c8 22 3d 46 43 ea bc 0f 26 99 3d
       -0.0020460228 0.03974243 -0.028596532 0.07477962
000060 08 3a fc 3b 6c 79 42 3c 0c 38 3c bd 83 ce b7 3d
       0.0076973476 0.01186977 -0.045951888 0.08974936
000070 00 e8 fd 3d 4f 08 9d bd 63 3a ab bc c5 55 21 bb
       0.12397766 -0.076676 -0.020901864 -0.0024617773
000080 bc ad 8c bd e8 82 aa 3d 03 c1 18 3d fd 39 6e bd
       -0.06869075 0.0832575 0.037293445 -0.05816077
000090 9e 31 80 bd 80 d9 a1 3d 8a b3 b8 3d 18 9f 75 bd
       -0.06259464 0.07902813 0.09018619 -0.059966177
0000a0 73 bd 09 3b 53 ed e1 3c 02 12 1d 3d 61 39 c7 bd
       0.0021017462 0.027578985 0.03834725 -0.09727741
0000b0 4e 20 24 bd 94 6c e2 3c f2 d7 48 3d d9 cc 03 bd
       -0.04006987 0.027639665 0.049034066 -0.03217778
0000c0 9f da ea 3c 98 76 10 38 11 53 9c 3c 59 5e 3f bd
       0.0286687 3.4442724e-05 0.019082578 -0.046720836
0000d0 f8 16 f7 bc c3 3d 91 3c 61 e6 92 3d 1b a1 e0 bd
       -0.03016232 0.017729646 0.071728475 -0.109682284
0000e0 a3 12 20 bc 48 4b b1 ba 3c 41 4e 3d cf f3 84 bd
       -0.009770068 -0.0013526464 0.05035518 -0.06491815
0000f0 6e ea ce 3d 15 dc 1f bd b3 b7 02 3e d6 f4 fc bd
       0.10103308 -0.039028246 0.12765388 -0.12351386

7.odefunc.norm2.weight f4 [64]
000000 54 f5 6c 3f 34 6d 64 3f e3 e1 98 3f 51 e6 3f 3f
       0.9256184 0.8922913 1.1943935 0.7496081
000010 e7 1f 58 3f 0c 7d 94 3f d1 ad 86 3f 98 9d 4f 3f
       0.8442368 1.1600661 1.0521795 0.81099844
000020 61 b2 87 3f 85 3b a8 3f 45 c1 8b 3f 48 b3 69 3f
       1.0601312 1.3143164 1.0918356 0.91289186
000030 60 30 a7 3f 66 1f 3e 3f d9 60 8d 3f 0c e4 94 3f
       1.3061638 0.7426666 1.104518 1.1632094
000040 7e 54 7a 3f f4 8f 8a 3f 63 47 5c 3f 24 30 69 3f
       0.97785175 1.0825181 0.8604643 0.9108908
000050 92 87 7a 3f 80 e2 87 3f 50 96 55 3f 7d 84 a7 3f
       0.97863114 1.0615997 0.83432484 1.3087307
000060 16 6f 98 3f d3 db 84 3f 38 09 7e 3f 4b ba 80 3f
       1.1908901 1.0379585 0.99232817 1.0056852
000070 c8 56 95 3f b3 7c a4 3f cc c7 2e 3f 93 47 81 3f
       1.1667109 1.2850555 0.68273616 1.0099968
000080 f4 b6 87 3f 58 05 63 3f fd f7 3f 3f 78 d0 70 3f
       1.0602708 0.8868003 0.74987775 0.940681
000090 d3 2d 84 3f 0a af 2e 3f 20 4c 9f 3f ab 65 71 3f
       1.0326484 0.6823584 1.2445107 0.9429576
0000a0 db 98 70 3f 06 b9 8a 3f 63 d5 8f 3f c0 94 96 3f
       0.9398324 1.0837715 1.1236995 1.1764145
0000b0 fc 32 55 3f 66 23 62 3f c1 e2 77 3f 7f cc 98 3f
       0.8328092 0.88335264 0.96830374 1.1937407
0000c0 40 d4 85 3f 7b c7 5b 3f a4 5d 40 3f c4 8a 7f 3f
       1.0455399 0.8585126 0.75142884 0.99821115
0000d0 23 03 93 3f 31 58 24 3f 86 7e 87 3f 0e 2a a0 3f
       1.1485332 0.6419707 1.0585487 1.2512834
0000e0 fa 84 86 3f 32 2e 52 3f 5c 1c 49 3f 04 d2 7a 3f
       1.0509331 0.8210174 0.785589 0.9797671
0000f0 d0 0d 80 3f f4 2c a7 3f 96 2d 85 3f 69 be 72 3f
       1.0004215 1.3060594 1.0404537 0.9482179

7.odefunc.norm2.bias f4 [64]
000000 e9 8c ba be 5e c8 60 bf 3f a0 84 bf d4 78 16 bf
       -0.3643563 -0.87805736 -1.0361403 -0.5877812
000010 4a 30 45 bf 03 0c 02 bf 3e 85 ce be 14 0b 6a bf
       -0.7702681 -0.5079958 -0.4033603 -0.91423154
000020 6b 14 86 be d2 d9 69 bf e7 6b 35 bf 45 41 53 bf
       -0.26187453 -0.9134799 -0.7086777 -0.8252147
000030 f1 af 96 be 34 b5 5a bf 25 6d 8a bf 10 5f a8 be
       -0.29431108 -0.85432744 -1.0814558 -0.32885027
000040 01 f1 48 bf b8 71 97 be 01 ab 23 bf 0f df 38 bf
       -0.7849274 -0.29578948 -0.63932806 -0.7221536
000050 d5 aa c6 be 9d 51 94 bf 86 8e 7d bf 66 44 16 bf
       -0.3880221 -1.1587406 -0.990456 -0.5869812
000060 b2 5d 4a bf 41 9e 9b be 50 ea d0 be 9c 83 62 bf
       -0.7904922 -0.30394176 -0.40803766 -0.8848207
000070 ba 4b 7d bf be 43 c9 be 61 6f 3d bf c0 29 6c be
       -0.98943675 -0.39309496 -0.73998076 -0.23062801
000080 2c 30 f0 be a3 24 17 bf 25 7f 44 bf 25 ee b6 be
       -0.46911752 -0.5904028 -0.7675651 -0.35728565
000090 51 71 76 be 8e db 37 bf 9e 67 7e bf da 1e 03 bf
       -0.24066664 -0.7181939 -0.9937686 -0.5121895
0000a0 8c 20 63 bf e3 47 c4 be 16 49 22 bf 6e c2 f8 be
       -0.8872154 -0.38336095 -0.6339277 -0.48585838
0000b0 2e ed 42 bf a7 e3 0c bf 44 d8 61 bf 23 a6 b1 be
       -0.7614316 -0.5503487 -0.8822062 -0.34697065
0000c0 b1 56 a2 be ab 23 86 bf 40 6e 35 bf 1f 7b 86 be
       -0.31706765 -1.0479635 -0.70871353 -0.2626581
0000d0 71 a8 02 bf 48 f4 37 bf e0 b5 b6 be eb 06 5d bf
       -0.5103827 -0.7185712 -0.35685635 -0.8633868
0000e0 10 f5 28 bf 81 4d 39 bf 61 6e 61 bf 79 3c bd be
       -0.65998936 -0.72383887 -0.8805905 -0.369602
0000f0 b5 e1 75 bf 3f af bf be 26 ea 4d bf 49 32 10 bf
       -0.96047527 -0.3743839 -0.8043541 -0.5632673
